project/dqn_agent.pth (torch, 39213 bytes, 6 tensors)

net.0.weight f4 [128, 4]
00000000: 6cae 04bf ce01 803d f570 863f 3698 92be
00000010: dfbd 09bf d7e2 a4be 11b1 a73f e728 ad3d
00000020: 780d bbbe be5c 9a3e 33f7 19bf 12b7 673e
00000030: 3684 43be 85cd 0abc 0758 2ec0 8477 ddbe
00000040: 2be1 cabe 81e8 39be 43a7 8bbf fa7e e03e
00000050: 8499 3f3e 1eac d5bd 71a6 0abf fdf2 043f
00000060: b1a8 2cbe 6106 5c3e 3b66 223f f3a2 09bf
00000070: 3b92 d9bd d91f 183e 8b8e 3540 a638 003f
00000080: 899d 763e 4ae8 103f 8c23 ce3e 3696 cd3e
00000090: 2c78 283e 0931 c9be be46 80bd 64b4 1e3c
000000a0: e507 d1be 3f1f 063e 94d9 3a3f c907 8c3d
000000b0: 2acd 27bf a2da 273b 0939 0d3f 67a1 4b3d
000000c0: 6a07 86bd 740c d4bc 2f42 26c0 01b4 a3be
000000d0: 10ef a13d fa84 c33c 8699 483e f36e e4bd
000000e0: d4b2 933e 6da4 20bf 9c16 b5be a537 c0be
000000f0: 8a19 913e 7fe3 453e acb3 0c3f 3172 4fbe
00000100: 4506 f6bc 40eb a9bd 0915 68bf cccd 5abe
00000110: d02c d53c 44e7 973e 6581 d7bd 3d8f 843e
00000120: ac30 513e ff84 12bf 0ce1 87be 4ef7 f23d
00000130: 0eca cf3d 278e 56be cc78 1a3e 3aa8 bcbd
00000140: 508e fd3d 8f90 7d3e 54fd 853e 90b4 823e
00000150: 559c dbbd 8129 a8bb 1551 23c0 65a3 2dbe
00000160: 185e 823b 7f2c 76bd 3bd9 b43f 49b4 543d
00000170: 90e3 92bf fda9 123e 4d4c 263e b193 703e
00000180: 6ed2 bb3e 1c89 383e b7f9 33bf b211 323d
00000190: 7476 d93e 2877 863e e94b 3cbf d5e6 803d
000001a0: 795d 093d e4a1 2ebe ec0f 2fbf ac2b 5bbd
000001b0: bfb3 093f e9d6 6e3e a981 e7be 5839 093d
000001c0: f50b 4ebe d306 0f3f 148f 3f3e 6068 603e
000001d0: 45ba 31bf 5218 ac3e bc08 6a3f 4365 a43e
000001e0: cd17 3b3e 6305 2e3f 5447 2cbf bac3 713e
000001f0: b96e bcbd 017b 2c3d 7bb8 0bc0 2541 48be
00000200: 330f f63d 673d 5abe 3e3c 02be 045a ea3c
00000210: cc51 033f 8dcf 023e 82e6 f53e 0414 80be
00000220: 2984 17bf 5b33 3b3e da86 823e 2bbd 07bf
00000230: 340e 05be 9366 973e 8c21 273f d2bc c93e
00000240: 316b 693e ed4b a2be b6b7 19bf b156 fcbd
00000250: 8e64 f9be 5423 a2be 7a6b 20bf 528f 113d
00000260: eeb9 2a3d 4681 41be f161 063e e253 d63c
00000270: e867 da3c 04ab 0d3f 4b88 be3e 2573 033f
00000280: b9b8 683e 5c23 713e 0a72 653d 00a7 873e
00000290: 6833 bebe 4343 46bd fe72 93be 7b6c 7ebd
000002a0: 3aa4 963e 5d6d 1dbf 0bef 2abe 1054 dcbe
000002b0: c351 2cbd 454f 2cbd 1e10 cd3f f40d 963e
000002c0: e59d 19bf fc97 953e bdf8 883f ef30 bf3e
000002d0: 8f74 0ebf 4bed 493f fb2b df3e a703 173f
000002e0: b57b 06bf 0b2f 00bf 5c7e 93bf afb5 abbe
000002f0: 383e babd 023f 103e d23a a3bf 349e e2be
00000300: 811f fcbe cc1b 0c3e 1380 87bf 6f40 a7bd
00000310: b2c8 e53d a529 23bf 875c 37bf 4cc7 43bf
00000320: a268 0a3f 65b4 063e ea5c 1f3f 2a1a d0bb
00000330: 1448 b43e 6937 eb3d 0cb7 a0bf 6b81 96bd
00000340: 8daa 99bc 99c8 be3b a35d 11c0 5f0c 94bd
00000350: 12ee 9dbd 4426 0c3e b98f 1440 9cc3 c93e
00000360: 649b d0bd 96b8 81be cb06 84bf 4375 2f3f
00000370: 3003 20bd ed02 763d 88c8 4240 4ebe bc3e
00000380: 9c3e 593e b123 c23e 83d8 d63f 837d d03e
00000390: 46a0 833e 6f39 4fbe cb19 dabd d3f8 8fbd
000003a0: 22f6 a43e 0c2b f43c 891e 723f 4644 bb3d
000003b0: f29c 29be 5c4e 04bf b654 a1bf dea8 c9be
000003c0: c677 d23e 0d63 6cbe 277f 1740 174c cc3d
000003d0: 4b53 823d fa30 6bbe 571b 993e e652 7bbe
000003e0: 2a90 203e bd94 4cbe 2bb3 b33d abdd c7bd
000003f0: 6d24 e6be 1ad3 8bbe e7d9 403e 9a1d b6be
-0.51828647 0.06250344 1.0503222 -0.28631753 -0.53805345 -0.32204315 1.3100911 0.08455067
-0.36533713 0.30148882 -0.6014282 0.2262843 -0.19093403 -0.008471851 -2.7241228 -0.43255246
-0.39624915 -0.181551 -1.0910419 0.43846875 0.18710905 -0.104332194 -0.5416022 0.5193327
-0.16861226 0.21486808 0.6343724 -0.53764266 -0.106235944 0.14855899 2.8368251 0.5008644
0.24083532 0.56604445 0.40261495 0.40153664 0.16452092 -0.39295223 -0.06263493 0.009686563
-0.40826336 0.13097857 0.7298825 0.068374224 -0.6554743 0.0025612493 0.55165154 0.049714472
-0.06544383 -0.025884844 -2.5977895 -0.3197327 0.07906926 0.02386712 0.19589815 -0.111539744
0.28847373 -0.62750894 -0.35368812 -0.37542453 0.28339797 0.19325064 0.5496166 -0.20258404
-0.030032286 -0.082968235 -0.906571 -0.21367568 0.026022345 0.2966863 -0.10522727 0.25890532
0.20428723 -0.57234186 -0.26538885 0.11863576 0.10145961 -0.20952664 0.15085143 -0.09211774
0.123806596 0.24762176 0.26169837 0.25528383 -0.10723177 -0.005131901 -2.5518239 -0.16956861
0.003978502 -0.06010103 1.4128793 0.051929746 -1.1475697 0.14322658 0.16240044 0.2349384
0.36683983 0.18021053 -0.7030291 0.043473907 0.42473185 0.26262784 -0.7355333 0.06294028
0.033536408 -0.17053944 -0.6838367 -0.053508446 0.53789896 0.23324169 -0.4521611 0.033501953
-0.20121749 0.5586979 0.18706924 0.21914816 -0.6942485 0.33612305 0.9141958 0.32108507
0.18270798 0.6797697 -0.6729634 0.2360982 -0.09200806 0.042109493 -2.1831348 -0.195561
0.12014618 -0.21312486 -0.12718293 0.028607376 0.5129669 0.12774487 0.48027426 -0.2501527
-0.59186035 0.1828131 0.2549351 -0.5302302 -0.129937 0.29570445 0.65285563 0.3940187
0.22794797 -0.31698552 -0.60045946 -0.123212226 -0.4870953 -0.31667578 -0.62663996 0.03553707
0.041681223 -0.1889697 0.13123299 0.026163045 0.026660874 0.55339074 0.37213358 0.5134757
0.22726716 0.23548645 0.05601696 0.26494598 -0.37148595 -0.04840399 -0.2879867 -0.062115174
0.2942217 -0.61495 -0.1669275 -0.43032885 -0.04207016 -0.042067785 1.6020544 0.2930752
-0.6000655 0.29217517 1.0700909 0.3734202 -0.55646604 0.78877705 0.43588242 0.5898995
-0.5253251 -0.5007178 -1.1522937 -0.3353705 -0.090938985 0.14086536 -1.2752326 -0.44261324
-0.49242786 0.13682479 -1.058596 -0.081665866 0.1121992 -0.6373542 -0.7162556 -0.7647598
0.54065907 0.13154753 0.6225115 -0.0063507752 0.3521124 0.11485178 -1.2555861 -0.07348903
-0.018758083 0.005822253 -2.2713401 -0.07228922 -0.07711424 0.13686472 2.3212721 0.3940705
-0.101858884 -0.2533614 -1.0314573 0.685383 -0.03906554 0.060061384 3.0434895 0.3686394
0.2121529 0.37917855 1.6784824 0.40720758 0.25708216 -0.20236753 -0.10649451 -0.07029881
0.32219034 0.029805683 0.9457784 0.091438815 -0.16563776 -0.51682067 -1.2603977 -0.39386648
0.41107005 -0.2308466 2.3671358 0.099754505 0.06363543 -0.22967902 0.2990367 -0.24543342
0.15679994 -0.19978614 0.08774408 -0.09759077 -0.44949666 -0.27309495 0.18833123 -0.3556946

net.0.bias f4 [128]
00000000: c806 233e f4f4 48bf f4e6 c0bc 9f77 0cbf
00000010: 1259 3f3b 4714 cdbd e4c5 f53d 54c4 16bf
00000020: 7a31 2cbf 044c 1b3f 955d 7f3e dcf0 fdbe
00000030: 5542 00bf 20e8 193f 9c20 a53e 7aea bc3d
00000040: 5c97 0c3f ff02 123f 8852 6bbe 2eae febe
00000050: 63b0 1a3e e7b2 e7be 1f2a 23be d104 bb3d
00000060: 6972 73bf 92ae 193e 1a20 e83e cbda 903e
00000070: dca8 2d3e 5da2 c13e b661 e1be 7a0b c4be
00000080: 4917 0c3d 3c96 133e 6d70 ac3b 1563 873e
00000090: 9d53 133e 0458 e43d e839 eb3e 766f 773e
000000a0: d14a 783d 16a7 0cbd 5cda aa3e 5dc8 23bf
000000b0: 9eb8 0dbd a666 d0bc 2b19 c5be 4e3c 39bf
000000c0: 60c9 433d d180 f0be 9839 d13e 4060 62bf
000000d0: ccda d7be 6d61 18bf bca6 20bc 3b70 11bf
000000e0: 454d cebe 1554 1c3f 1566 e1bd 622a acbe
000000f0: 8b1d b1be fc86 eb3e 3ae7 01bf 55c3 26bd
00000100: b985 b43d b535 3cbf 22d3 b73d e0fb d23d
00000110: 4f6e e1bd ff18 7bbf a9f3 943d 6ac1 dc3e
00000120: 61bb 943e 46d9 293f 077f 03bf 3d5d cebe
00000130: dcf2 0ebf 876f 1c3f f2ac 09bf c1b1 163e
00000140: 982f 253f 295a f4be e445 c73e 2047 0dbf
00000150: 1921 123f 9bd1 38bd 41a2 bfbe 7c2c 71bf
00000160: ee6b b1bd 2c47 5c3e 7abe 0c3f 29d0 e43e
00000170: bcd0 e93e 1067 82bd 1293 96bd 8af9 b73e
00000180: 58c5 0ebe 0927 a6be 1bcc f73e 1d56 bfbe
00000190: 5277 c2bc a88e b43e 5fcc 9dbd 6ea9 b8be
000001a0: 7e45 253f 59a8 c5bb 7cc9 03bf c4a5 153e
000001b0: fc6a de3e 0cc2 44bf ed9c 1c3e e3af 9abf
000001c0: 6d13 ea3e 0597 b6be 4de8 093f b597 923e
000001d0: 6398 5bbc 3eee fcbe b967 e73e 9c8d ddbe
000001e0: b9e1 043f 4c3c 11bf 9844 2f3e cbd8 043e
000001f0: 8498 233d f1f3 3d3e b94c a1bf f4bd 19bf
0.15920556 -0.7849877 -0.023547627 -0.5487003 0.0029197377 -0.10013633 0.12000635 -0.5889332
-0.67262995 0.60662866 0.24938042 -0.49597824 -0.50101215 0.6011982 0.3225144 0.0922441
0.54918456 0.5703582 -0.22980702 -0.49742264 0.15106349 -0.4525368 -0.15934037 0.09131778
-0.9509645 0.15008 0.45336992 0.28291926 0.16958946 0.37819186 -0.4401986 -0.38290006
0.034201894 0.14412779 0.0052624256 0.2644278 0.14387365 0.111496 0.45942616 0.24163613
0.060618225 -0.034339033 0.3336972 -0.63977605 -0.034599893 -0.025439572 -0.38495764 -0.7235764
0.047799468 -0.4697328 0.40864253 -0.88428116 -0.42159116 -0.5952366 -0.009805378 -0.56811875
-0.40293327 0.610658 -0.11005799 -0.33626086 -0.34592852 0.46001422 -0.5074345 -0.040713627
0.08814568 -0.7351945 0.08975817 0.103019476 -0.11007368 -0.98085016 0.07273037 0.43116313
0.2904921 0.6634716 -0.51365703 -0.4030551 -0.55839324 0.6110768 -0.5377952 0.14716245
0.6452575 -0.47725037 0.3892051 -0.55186653 0.57081753 -0.04512177 -0.37428477 -0.942085
-0.08663164 0.21511525 0.54978144 0.44690064 0.45667064 -0.06367314 -0.0735227 0.3593257
-0.13942468 -0.32451656 0.48397908 -0.37370387 -0.023738537 0.35265088 -0.07704996 -0.36066765
0.6455916 -0.0060320315 -0.51479316 0.14614016 0.43440998 -0.7685859 0.15294237 -1.2084926
0.45717946 -0.35662094 0.5387009 0.28631368 -0.013403031 -0.49400514 0.45196322 -0.43272102
0.51906925 -0.5673263 0.1711601 0.12973325 0.039940372 0.18550088 -1.2601539 -0.6005547

net.2.weight f4 [64, 128]
00000000: ab9f d33d 1777 d6bc 8214 cabd b4fc 20bf
00000010: a321 933d 3f85 8839 8b0e 12bc bd70 78bf
00000020: 2742 30bf ecca 443e 0071 be3d 6573 8abe
00000030: 2ff9 bcbf 4cec 4a3e cfec ca3c 7030 123c
00000040: 3c58 393e 4d10 cc3d f9dd b1bc 359e 153d
00000050: 68d1 ae3d 56ed 44c0 53e4 6abc 035c 8d3e
00000060: 94d7 a7bf dab3 b7bb 2440 083e 8501 d13d
00000070: a6bb 9a3e 620e 393d efde 4cbe 1244 afbf
00000080: a321 f43c a313 d83d 3f00 cb3d 8afb 783e
00000090: d8a0 0e3e 028e 0f3e 7915 d13d 2d1a 373e
000000a0: 454b e13d 76f0 ba3d 0aaa 553e 6343 c7bf
000000b0: c478 15bf 7528 823e 9e33 acbe c6f9 e2be
000000c0: a08e a3bd 75da 3dbf d19e f83d 8540 a2bf
000000d0: abe7 58c0 6899 40c0 513d 16bc 3423 93bf
000000e0: ad20 6bbe 53b3 a03d b8ac 06bd 0004 c1be
000000f0: 41d3 a0be 4c3f 943d d97a 11bd be1d 1a3e
00000100: f7ff d23d 5906 cbbe ad65 b73d 66e3 cdbc
00000110: d769 04be b5ae e6bf 736c 033e 1089 7f3d
00000120: ec07 623b 0aab 783e 2b75 fbbf 29d4 56bf
00000130: 5247 01c0 a42a 2c3e 7bfd d3bf cfe4 833c
00000140: 110d 153e 14eb f0bf ecdd 0c3e ef02 b6bf
00000150: ca66 0d3e e233 693e dacd 59c0 a423 9bbf
00000160: 8a9f 94bd f7e1 fb3c 6f7e 123e 8335 9d3e
00000170: dbaa 773e cc0f ec3d adfd d33d 8f0a 003e
00000180: 1713 763e cfc7 19be 91d0 d73c 5019 75c0
00000190: 703f 8bbd 4c9a 5a3e 7a59 efbd d890 833d
000001a0: cde1 e03d e326 7d3d a781 94bd 31dd b73d
000001b0: edd5 1a3e 8fc9 b1be d51c 77bd 8f76 10bf
000001c0: 0541 cc3d 1293 95bf a251 1a3e 1862 8a3d
000001d0: 127d 543d 2299 9dc0 81bb 363e 3b9b 25bf
000001e0: ea9f 083e 7183 43c0 7dff 543e cfd3 193e
000001f0: be7e 4c3b afe2 2e3c 7fc4 d1bf 4bb2 5ebf
00000200: 3d74 353c 8ada b2be 4fb6 f1bd 9e73 4dbf
00000210: 23c3 f93d 647f edbd cd3e 2e3e 3b7e c1be
00000220: 9041 65bf 344f aa3d 373e 873d 8774 d0be
00000230: 2b52 d1bf 81d7 203e 2d18 023e 8d4d 73bd
00000240: f5ce 413e 58ab b9bc b47b 0f3c da98 62bd
00000250: 05f4 f83c 7a00 f6bf 07e1 193e 9cca f83d
00000260: a764 40bf 2f11 50be ffcf 383c 20fa d23d
00000270: 7d16 913d bffe ae3e a237 803e eb55 f0bf
00000280: c983 b73d ebd1 3c3d 7ef5 5e3e e237 b93d
00000290: d844 34bd 64f4 223e 6644 b93d 643d a13d
000002a0: b0a0 063e a0b8 0a3e c3c6 e53d 72fe f6bf
000002b0: 14a3 1ebf 8d2a 243e 6458 86be e89c 8f3e
000002c0: 4b20 e13d 8906 7fbd 9e94 d13c bef1 2abf
000002d0: 6ad5 9bbf 4955 30c0 d213 e53d 92a5 81be
000002e0: 61d5 43bc 52d7 9d3c 8c70 a03c 653d 173f
000002f0: 94ac c7be e538 383e 1199 9fbc f718 173e
00000300: b989 413e 6732 163e f416 603d e384 8ebd
00000310: b66a da3d 8a77 04c0 799b 4b3c 8231 e93d
00000320: 0e44 423d 04dd 143e 35e0 a0bf 94a6 043f
00000330: 2f75 0fc0 b47e 083e f5db 75bf e18c 053e
00000340: 180f f93d 6b86 80bf bd72 7c3c 077e 04c0
00000350: 2c3c 3a3d d885 1c3e 61b3 c6bf d286 a4bf
00000360: 56d3 ef3d 6dfe 6cbd f82f 163d 011c a33e
00000370: 8b1c d03d df15 acbb 3291 573d d8e4 303c
00000380: ab0b e33d ba9f 72bc 6b3e 013e db8e f2bf
00000390: 5f6f 6c3d 9457 353e 7bf5 99bc 72cf 663e
000003a0: 2f74 cb3d 2eb2 413e eb86 ba3e 96ea 203e
000003b0: ab1c 143e 89a8 a43e acd5 5bbc 9594 e6be
000003c0: 25a4 d9bc 2c4e 22bf dffc e73d 146c d53d
000003d0: 9f42 bdbd 50d5 84c0 551b 8e3d 421b dc3e
000003e0: 6d80 e8bc 4b58 00bf fa76 963e d6ff fd3c
000003f0: 310f 3f3d 3c34 23bd 779c d8bf 5de7 6ebf
0.103331886 -0.026179833 -0.09867193 -0.62885594 0.0718415 0.00026039217 -0.0089146 -0.97047025
-0.6885094 0.19218034 0.09298897 -0.27041164 -1.4763545 0.19816703 0.024771122 0.008922681
0.18100065 0.099640466 -0.02171229 0.03652783 0.08536035 -3.0769858 -0.014336663 0.27609262
-1.3112664 -0.005606157 0.13305718 0.10205368 0.3022129 0.045179732 -0.20006917 -1.3692648
0.029801195 0.105506204 0.09912156 0.24314705 0.13928545 0.14019015 0.10209174 0.17881079
0.11000685 0.091278955 0.20865646 -1.556744 -0.583874 0.2542149 -0.3363313 -0.44331187
-0.07986188 -0.74161464 0.12139667 -1.267594 -3.38914 -3.0093632 -0.009169892 -1.1495118
-0.22961684 0.078467034 -0.03287956 -0.37698364 -0.31411174 0.072386354 -0.035517547 0.15050408
0.10302728 -0.3965328 0.0895494 -0.025132846 -0.12931 -1.8022066 0.12834339 0.062386572
0.0034489585 0.24283996 -1.9645132 -0.8391748 -2.019978 0.16813141 -1.6561731 0.016100315
0.14555766 -1.882174 0.13756531 -1.4219645 0.13808742 0.22773698 -3.4031892 -1.2120252
-0.07256992 0.030747397 0.14306043 0.3070489 0.2418627 0.115264505 0.10351119 0.12504028
0.2403072 -0.15017627 0.02634457 -3.82967 -0.06799209 0.21347922 -0.11686988 0.06424111
0.10980568 0.061804663 -0.07251292 0.08977736 0.15120669 -0.3472409 -0.06033023 -0.56430906
0.09973339 -1.1685507 0.15070203 0.06756991 0.05187709 -4.924943 0.17844965 -0.6468999
0.13342252 -3.0548975 0.20800586 0.15022205 0.0031203474 0.010674163 -1.6388091 -0.86990803
0.011075077 -0.34932357 -0.11802351 -0.8025454 0.121954225 -0.115965635 0.17016144 -0.3779162
-0.89553165 0.08315888 0.066036634 -0.40713903 -1.6353201 0.15707208 0.12704535 -0.05940013
0.18926604 -0.02266471 0.0087575205 -0.05532155 0.030389795 -1.9218895 0.15027247 0.1214802
-0.75153583 -0.20319055 0.011280059 0.10301614 0.070843674 0.3417873 0.25042444 -1.877622
0.08960683 0.04609863 0.21773335 0.09043862 -0.044010967 0.1591354 0.09046249 0.078730375
0.13147235 0.13546991 0.112195514 -1.92964 -0.6196759 0.16031857 -0.26239312 0.28049397
0.109924875 -0.06226209 0.025583562 -0.6677512 -1.2174504 -2.7552054 0.11185421 -0.25321633
-0.011952729 0.019267712 0.019584917 0.59078056 -0.38998854 0.17990454 -0.019482167 0.14755617
0.18900193 0.14667664 0.05470939 -0.0695894 0.10664885 -2.069796 0.012427204 0.11386396
0.047428183 0.14537436 -1.2568423 0.5181668 -2.2415273 0.13329583 -0.9603875 0.13042022
0.12161082 -1.0041021 0.015408215 -2.070192 0.04546754 0.15285432 -1.5523492 -1.2853644
0.11710231 -0.057859827 0.03666684 0.31857303 0.10161694 -0.0052516307 0.052628703 0.010796748
0.1108621 -0.01480859 0.12621467 -1.8949846 0.0577234 0.1770919 -0.018793812 0.22540072
0.0993427 0.18915626 0.3643106 0.15714487 0.14464061 0.32159832 -0.013417643 -0.45035234
-0.026567528 -0.6340053 0.11327528 0.10421005 -0.092412226 -4.151039 0.06938807 0.42989546
-0.02838155 -0.50134724 0.29387647 0.031005781 0.046645347 -0.039844736 -1.6922749 -0.9332178

net.2.bias f4 [64]
00000000: 8a25 9d3e 16e2 303e d070 8e3c 7ce0 0bbd
00000010: b15c f53c 696e 28bd 29de 453d 6d12 a2bd
00000020: 2993 673e 5d31 d23c 4627 6c3e ea87 933e
00000030: e1fa df3c 987a bbbd d32e 5f3c 6e93 553e
00000040: 94ae b93e b20e 943e 26c9 71bd de57 17bc
00000050: 7564 aa3e 36ec 5f3e 8bbd 883e 9fe3 863d
00000060: 7d64 953e f4ab 513e 9713 a83e 20f2 6fbd
00000070: 5c26 913e 35a0 9a3e ff6a 8b3e e1ae b73c
00000080: aa2a af3e 7ea9 2d3d be60 9a3e 459d 943e
00000090: fa54 a0bd bcdb d4bd e677 eabc 8279 853e
000000a0: bdbc 89bd 6c70 38bd e0f0 083d c991 9d3e
000000b0: 5b7e 80bd 38c5 8bbd 74e4 efbd e0f5 5bbb
000000c0: 3244 6dbd dd2e a73e 1489 c6bd 068f 7dbc
000000d0: f882 04be 9b92 96bd 3a86 b7bd e64d 913e
000000e0: 123c 00bd 9ce8 883e 6b98 423c 9793 9ebb
000000f0: 2537 5b3e 9b18 073d 1cee 6e3d e7f5 fdbc
0.30692703 0.17273745 0.017387778 -0.03414963 0.029951425 -0.04112092 0.04830757 -0.07913671
0.22614731 0.025658304 0.23061857 0.28814632 0.027341308 -0.09154242 0.013622004 0.20857021
0.36266005 0.28917462 -0.05902972 -0.009237258 0.33279768 0.21867451 0.2670711 0.06586384
0.2917823 0.20475751 0.32827446 -0.058580518 0.28349578 0.30200353 0.2723007 0.022422256
0.34212238 0.04239797 0.30151933 0.29026237 -0.07828708 -0.103934735 -0.028621625 0.26069266
-0.06725452 -0.04502909 0.03343284 0.30775288 -0.062741004 -0.06824726 -0.11713496 -0.00335633
-0.057926364 0.3265294 -0.09694114 -0.015475994 -0.12940586 -0.073521815 -0.089611486 0.28379744
-0.031307288 0.26739967 0.01187716 -0.0048393714 0.21407755 0.03298245 0.058332548 -0.031001044

net.4.weight f4 [2, 64]
00000000: c90c 773f ff46 aa3e 77b0 87bc 4a83 5dbd
00000010: 29bd 8bbc 491e 46bd 1230 40bd 90c6 b2bd
00000020: 37ab 573f 6328 bfbc 9234 863f 61e3 603f
00000030: 2d9f bcbc 041f 75bd ff0d d7bd df4d 563f
00000040: b3f2 ecbe a699 533f e61c a33d 53be 183d
00000050: d3b7 2c3f b1ad 5b3f 78d3 4abf 1f14 8fbd
00000060: 8863 633f f101 bd3f 1d4a 883f 9c6e 8a3d
00000070: d7e0 613f 0319 323e afde 51bf 7e2c 85c0
00000080: 1394 623f 2150 cabc b844 363f 3015 823f
00000090: 22cf e23f eca8 873d a838 00bd 537f 963f
000000a0: 70cf 5a3d 4dbc 9ebd b2e8 b5bd f2d2 713f
000000b0: 1371 eebc 6744 8a3d 206a b63c 2075 c1bc
000000c0: 55f8 99bd 1e50 0cbf 42b7 bdbd 108f 163d
000000d0: 4dda 603c 04f9 c83c 7655 2c3d 9d5c 763f
000000e0: ac10 73bd 60b5 253f 0b6f 27bd 5eb6 973d
000000f0: 5a9f 763f f837 bebc 29ab 4ebc 3ce6 88bc
00000100: 7689 693f e91a 5b3f f974 a5bd b46b b3bb
00000110: e773 76bd 873f 053d 8d9c 6ebd 6375 9f3d
00000120: a565 573f b6b3 0bbd f1b7 393f 6e99 223f
00000130: f8a9 b1bc f3d3 8bbd b630 ecbc 6059 323f
00000140: 00d6 b13f 7100 283f ee51 d9bd 8eb2 9bbd
00000150: 485e 5d3f 7b3b 8d3f 06c1 3e3f 60ef 85bd
00000160: 2c4a 433f 64f5 1abd 4b6b 6c3f 024d 40bd
00000170: 450e a9bf bb2b 6e3f 58bf 4a3f b9f5 39c0
00000180: 9ead fa3e 5290 66bd 1ae3 203f 1bc7 2dbf
00000190: 4de5 90c0 9050 e2bd ecf2 3ebd b639 333f
000001a0: 3968 2cbb 3aa6 3fba 4051 87bd bc39 763f
000001b0: 40a1 adbd 4841 26bd 8e86 a63d 2cbe 403b
000001c0: bc90 83bd 5b34 843f f222 913d 4394 82bd
000001d0: 6362 5ebd 5620 2f3c 4e3d a4bd b9ed 183f
000001e0: a444 0abd 3e3c 5f3f bf7a d6ba 1426 c9bd
000001f0: 8fe9 6d3f cb04 a5ba 6f16 b7bd e811 25bd
0.96503884 0.3325729 -0.016563637 -0.054080285 -0.017057972 -0.048368726 -0.046920843 -0.08729279
0.8424563 -0.023334688 1.0484793 0.8784695 -0.02302512 -0.059844032 -0.105007164 0.8371257
-0.46278915 0.82656324 0.07964496 0.037290882 0.67467993 0.8581191 -0.79228926 -0.0698626
0.8882375 1.4766217 1.0647618 0.06759378 0.88233703 0.17392354 -0.81980413 -4.161681
0.88507193 -0.024696412 0.71198606 1.0162716 1.7719462 0.06624016 -0.03130403 1.1757606
0.053420484 -0.07750759 -0.08882274 0.944625 -0.029106652 0.06751328 0.022267401 -0.02361542
-0.07518069 -0.5480975 -0.09263469 0.03675753 0.013723922 0.024532802 0.04207369 0.96235067
-0.05934207 0.6472988 -0.040877383 0.07407831 0.963369 -0.023220047 -0.01261405 -0.016711347
0.91225374 0.85587937 -0.080789514 -0.0054754857 -0.060169127 0.032531288 -0.058254767 0.077860616
0.8413947 -0.034106933 0.725463 0.63515365 -0.021687493 -0.068275355 -0.028831821 0.69667625
1.3893433 0.65625674 -0.1061133 -0.07602416 0.86471987 1.1033777 0.7451328 -0.06539798
0.7628505 -0.03783168 0.92351216 -0.04694844 -1.320748 0.9303548 0.7919822 -2.9056227
0.48960584 -0.05628998 0.6284653 -0.67881936 -4.527991 -0.11050522 -0.046618387 0.70009935
-0.0026307239 -0.00073108415 -0.06607294 0.96181846 -0.084780216 -0.0405896 0.08131133 0.0029410226
-0.0642409 1.0328478 0.070867434 -0.06375935 -0.054293048 0.010688862 -0.080195054 0.59737736
-0.033756867 0.872013 -0.0016363485 -0.09821716 0.9293451 -0.0012589929 -0.08939826 -0.04030028

net.4.bias f4 [2]
00000000: bbdd 983e 0c9c ab3d
0.29856667 0.08379373
